data.pth (torch, 17687 bytes, 6 tensors)

layer1.weight f4 [12, 194]
00000000: 2975 f5bd a086 bebd 03f2 9cbd a9fc dabd
00000010: dbe9 0abe 073f 3fbe 1595 813e 8333 6dbf
00000020: c8e1 0b3f 0452 92be e9de 2f3e 7f4d 2abe
00000030: a616 52bd a273 30bf 4c79 803e c08f ea3e
00000040: cec7 12bd 1046 34bd 9ab3 d03e e2c3 aa3e
00000050: 51be 0cbe 5d88 bb3d 5976 893c c36c 92be
00000060: 595e 30be 079f 25be ca1c d83e d01d c2be
00000070: 0c52 233e 0afd 0e3f ab7c 90be 82fb 70bf
00000080: 39ca abbe 1145 973e 4a84 0d3f e312 373e
00000090: 1f7c 52be 5678 e2bd c0ff 353f 577e 153f
000000a0: 62ef ddbd 70cd 4fbe 9423 fc3e 1a74 53bd
000000b0: 3e0b 6bbe 22b4 aa3e 3aa9 b23e a039 783e
000000c0: 5a8e 89be f65b 8d3e 884f 193e 3f05 febd
000000d0: 1bd4 74be 138b 39be fafc e13d 6c66 863e
000000e0: 30b3 babd 022e bf3e 4c1e 06bd c184 5bbe
000000f0: 5b5c 3ebe 0648 213f 40ac 64bf e2f9 b3bd
00000100: ed50 ed3c 34ad 7c3d 9d56 78be 4408 113e
00000110: a9c9 a43c 9e15 7e3f 6be7 31be 7082 39bd
00000120: 7d46 cbbe 0cd5 603e 51fb 6b3f 89f7 aa3e
00000130: 5f2d 0d3f bb1e 2bbf b2f4 ca3d 8043 62be
00000140: 2082 de3e ae25 633e 66d9 cb3e f7d3 d6be
00000150: 924c 803e 3a41 a3be fd53 b7be 0a53 6fbd
00000160: e7bf 2a3f b670 263d 57df 8f3e de65 9bbe
00000170: f3c5 253e ea98 0b3f c20b 8c3e 04f8 42bd
00000180: 5709 c3bd 3a54 e13e 1480 ce3d 2d1e 7bbe
00000190: f112 1bbc 49c6 c6be 82f3 9b3e 7cb9 af3e
000001a0: e7e6 66be 50dd c43b 4f11 093f 7f27 e1bc
000001b0: 3205 afbe 2ffa 2fbe 89e5 323e 93d4 41be
000001c0: 0dbe 83bc 808d 34bf d89c 913e 31c3 573c
000001d0: 2a7e 06be 0528 1dbe 17a3 5a3b a42d 113f
000001e0: 68af 6b3d 7f5a e8bd b9dd 8b3e c8ed 023f
000001f0: 83fe babe 55b5 24be 30fb e73c 8b0d 363c
00000200: c10c 4dbe 38a0 9c3e c795 873e 4d2d d93d
00000210: c0c9 1e3e 1c0e 8fbd 6c49 c4be c57f 3dbd
00000220: 7b1d 083d d489 b23d 2396 9d3e ce34 29be
00000230: 6d23 8e3e 5e93 ae3e 851a d9be abb7 86bd
00000240: 1506 b43e df67 113f 2c59 7b3d 5848 2bbf
00000250: 0c26 a03e cda9 6bbe 5194 303e f75c 353d
00000260: 23a0 11bf 1c19 043f 382f 78bb 53cf 60bf
00000270: 6801 9a3c f25f 873e 220f cabe 7887 a1bd
00000280: 0876 10bf b773 f73e 2374 22be 3b82 eabe
00000290: 62bf 843e 778f aa3e 5e64 c53e 6dcf 8ebe
000002a0: 6b92 033f d910 babe 75bb 02be a072 3cbe
000002b0: 4c5a 83be 4cd9 0f3e 756d 6d3e bb03 aebe
000002c0: bb79 7ebe 7657 bf3e e42e a33d 2bbb 38be
000002d0: bcf1 92bd 71b5 77be 3149 943e 6be4 46bf
000002e0: 37f6 8bbd 4d0e 51bc dff9 73bc bb0b ae3e
000002f0: f573 463f 651a 413f 4d46 22be d8fb ef3e
00000300: a853 9a3e 2947 d63e 0313 563d 1c0e f3bd
00000310: ea5d d13e 6aa8 af3e af40 4d3d ef67 913c
00000320: f320 353f be7f 82be 0ec6 dc3e 56ae f63e
00000330: eb44 843e 0eb6 01bf 569d 35be 2cac 3e3f
00000340: 43d3 883e e8c5 083e 7120 e13d a18d b2be
00000350: 2bef 793e 2637 2e3f 1b4d b23e 2433 343e
00000360: 0372 24be 8b89 083f d7a6 5c3e aafd 62be
00000370: 52b3 323f e91b 3c3f e253 1ebe 397d bf3e
00000380: 3fd0 f43e 01bb 883f a1cf 0a3f 9a09 0f3f
00000390: 4e70 2abe 766f c4bc 65e7 8a3d ac20 abbb
000003a0: 8734 3ebf d39d 23bf da01 1f3d 0b88 e5bd
000003b0: 7738 1abf b784 03be 34b0 12be c816 0cbe
000003c0: 2d7e 433d 739f 9ebe 171e c83d 8e7f 5c3e
000003d0: 6a65 64bd 62c1 afbd 1d80 0e3c c24b bdbc
000003e0: 1a46 c3be 0999 2bbe c300 3cba 4176 753e
000003f0: 122c c03d a636 da3e 8362 09bc ec4a 11bf
-0.11985237 -0.093030214 -0.076633476 -0.10692722 -0.13565771 -0.18676387 0.25309053 -0.92656726
0.5464139 -0.28578198 0.17174877 -0.16631125 -0.05129113 -0.6892644 0.25092542 0.45812798
-0.03583508 -0.04401213 0.40762025 0.33352572 -0.13744475 0.091568686 0.016780065 -0.28598604
-0.17223491 -0.16173945 0.42209464 -0.3791337 0.15949267 0.55854857 -0.28220114 -0.9413377
-0.3355272 0.2954488 0.5527998 0.17878298 -0.20555161 -0.110581085 0.7109337 0.58395904
-0.10836674 -0.20293212 0.49245894 -0.051624395 -0.22953507 0.33340555 0.34894735 0.24240732
-0.26866418 0.27609223 0.14971745 -0.12403344 -0.23909037 -0.18119459 0.110345796 0.26250017
-0.091162086 0.3733979 -0.032743737 -0.2143736 -0.18589918 0.63000524 -0.8932533 -0.08787896
0.028969252 0.061688617 -0.2425179 0.1416331 0.02011569 0.99251735 -0.17373435 -0.04529041
-0.39702216 0.21956271 0.92180353 0.3339198 0.55147356 -0.66843766 0.09909953 -0.22096062
0.43458652 0.22182342 0.398143 -0.4195859 0.2505842 -0.318857 -0.35806265 -0.0584288
0.6669907 0.040634833 0.28100082 -0.30351156 0.16188793 0.54530203 0.2735272 -0.047599807
-0.09523266 0.44009572 0.10083023 -0.2452323 -0.009464965 -0.38823155 0.3045922 0.343212
-0.2254902 0.006007828 0.53542036 -0.027484654 -0.3418365 -0.17185281 0.17470373 -0.18928747
-0.016081834 -0.7052841 0.28439975 0.013169096 -0.13134065 -0.15347297 0.003336137 0.5671027
0.057540327 -0.11345386 0.27317598 0.51144075 -0.36522302 -0.16084798 0.028318018 0.011111627
-0.20024396 0.30590987 0.2648146 0.106043436 0.15506649 -0.06985113 -0.38337266 -0.04626443
0.03323124 0.08717695 0.30778608 -0.1652405 0.27761403 0.34096807 -0.42403045 -0.06578001
0.3516089 0.5679912 0.061364338 -0.6690726 0.31279027 -0.23013993 0.17244078 0.04427811
-0.56884974 0.51600814 -0.0037869941 -0.8781635 0.018799499 0.26440388 -0.3946467 -0.07887167
-0.564301 0.4833047 -0.15864615 -0.45802483 0.25927263 0.3331258 0.38553137 -0.27892628
0.5139529 -0.3634098 -0.12766822 -0.18403101 -0.2565483 0.14047736 0.23186286 -0.3398722
-0.24851124 0.37371415 0.07967928 -0.18040149 -0.071750134 -0.24190308 0.2896209 -0.7769229
-0.06834071 -0.012759757 -0.014891117 0.33993325 0.77520686 0.754309 -0.1584713 0.4687183
0.3014195 0.41851166 0.052264225 -0.118679255 0.40891963 0.34308177 0.050110515 0.017749755
0.707534 -0.25488085 0.43119854 0.48179883 0.2583383 -0.5066842 -0.177358 0.74481463
0.2672368 0.13356745 0.10992516 -0.3487368 0.24407642 0.680529 0.34824452 0.17597634
-0.16059117 0.53334874 0.2154802 -0.22167078 0.6980487 0.7348009 -0.15461686 0.37400225
0.4781513 1.0682069 0.54223067 0.55874026 -0.16644403 -0.02397893 0.06782416 -0.0052224007
-0.742989 -0.63912696 0.038820125 -0.11207589 -0.6024241 -0.12843595 -0.14325029 -0.13680565
0.047727752 -0.30981025 0.09771364 0.21533033 -0.05576078 -0.08581807 0.008697537 -0.023107413
-0.3813942 -0.16757597 -0.00071717444 0.23970892 0.09383406 0.42619818 -0.008385303 -0.56754947

layer1.bias f4 [12]
00000000: 5119 2b3f fb39 093f a972 383f 89b1 0f3f
00000010: 3faa ef3e e19d fe3e c7fe 683f 65aa 643f
00000020: 7046 863f 44c3 163f 9ca4 583f adea 643f
0.66835505 0.53604096 0.7204996 0.5613027 0.46809575 0.49729827 0.9101376 0.893225
1.0490246 0.588917 0.84626174 0.89420587

layer2.weight f4 [12, 12]
00000000: 57cb 5a3f 4988 83bd d9c4 bebe 2c6d 073f
00000010: 2951 dd3e 5c15 a13f 94b3 283d 25a0 ebbe
00000020: 21d8 903f e2ba 263e 0eb1 96be a5ea 243e
00000030: a094 1b3f 626d 943f 79ef e53e 5f12 a53f
00000040: 4146 343f d3fe d2be 1a1b 373f 60bf 23be
00000050: 43c3 173f 197f 2a3e ced7 70bf c29c 0b3e
00000060: d12f d53e 4ee9 66bf 461c 923d a622 6f3f
00000070: a278 9b3e 3f68 063f 5faf 323f def4 9dbe
00000080: 2636 2c3f a9eb 36be 2c65 3ebf 7a3e 103f
00000090: 3078 b4be 12a8 9f3f 7ede 563f d7d7 a23f
000000a0: 5fef 563d 4568 a5bf bd41 0d3f f86e 4f3f
000000b0: 4ebe 99bf e9ce 113f f989 e93e d9e4 0c3f
000000c0: 4f1c b53f 6a77 1cbf 246b 1e3e edbc 1cbf
000000d0: 3568 073f 3385 b13f f147 23bf 2b6d 5d3f
000000e0: 6414 6d3f 7f06 20bf 66bf 1b3f 695e 8a3f
000000f0: 9051 7bbf c526 6abf d559 8cbf a913 38bc
00000100: 1678 2dbf e9ab de3c 99a7 9a3f 8192 9f3f
00000110: a3d9 9e3f d427 813e f661 853f 95bb 983f
00000120: 17b7 393f d761 c03f a115 af3f f821 80bf
00000130: 78d3 833f 87f3 ac3f 8ed3 28bf 4aeb 673e
00000140: e9b7 c93e 23cb 88bf c1ad ac3f c474 823f
00000150: f726 8b3f 6ca5 6fbf 70c9 c0be 6261 403f
00000160: ebe6 b13f 59d2 443f bf7a 30be 642b 473f
00000170: ed02 a0bf 5ae5 a03f b85c 673f c19c 963f
00000180: 271c a63f cfb7 8a3e 8d63 9f3e da99 4b3e
00000190: 96fc 4f3f 8bb7 223f fa10 c1bd 4a4c 18bf
000001a0: fea3 283f 4406 0f3f 4812 8b3c ded4 4ebf
000001b0: f651 f8be db44 6cbe dc97 9e3f 28ba 2abf
000001c0: 93fe 69bf 25c9 6cbf 6330 d33f 8576 9e3f
000001d0: 12df 8b3f 8209 4b3f 1bb1 9b3f 726c cebe
000001e0: e3c4 a2bf 7fe5 9e3f baa0 85bf f410 bebe
000001f0: eb30 b23e 647d 843f 61a5 f53c c068 ab3f
00000200: adae 4c3f bed1 a43f 9eb3 82be 25ea e13e
00000210: 2b06 d4be 11c6 8a3f 304e 153f 5ee7 133f
00000220: 17f1 2a3f 091b 743f 6972 48be 4956 b83e
00000230: e211 72bf 5120 b23d 5422 6a3e be8a bc3d
0.8546652 -0.06422479 -0.37259558 0.5290096 0.43225983 1.2584643 0.041186884 -0.46020618
1.1315957 0.16282228 -0.29431957 0.16105135 0.6077366 1.1595881 0.44909266 1.2896231
0.704197 -0.4121004 0.7152573 -0.15990973 0.5928232 0.16650046 -0.9407929 0.13634017
0.41638044 -0.90199745 0.07134299 0.93412244 0.30365473 0.52502817 0.69798845 -0.3085088
0.67270124 -0.17863335 -0.74373126 0.5634533 -0.35247946 1.2473166 0.83933246 1.2722119
0.052474376 -1.2922446 0.55178434 0.810287 -1.2011201 0.56956345 0.45613077 0.55036694
1.4149264 -0.6111971 0.15470558 -0.6122578 0.5289338 1.3868774 -0.6378165 0.864947
0.9260924 -0.6250991 0.60838926 1.0810062 -0.9817133 -0.9146541 -1.0964915 -0.011235156
-0.6776136 0.027181583 1.2082397 1.2466584 1.2410167 0.252257 1.042052 1.1932245
0.72545 1.5029858 1.3678476 -1.0010366 1.029891 1.3511819 -0.65947807 0.2264835
0.39398125 -1.0686992 1.3490525 1.0191884 1.0871266 -0.9361179 -0.37653685 0.75148594
1.3898596 0.76883465 -0.17234324 0.77800584 -1.2500893 1.2569993 0.9037585 1.1766587
1.2977341 0.2709336 0.3113064 0.19882908 0.8124479 0.63561314 -0.09427066 -0.5949141
0.6587523 0.55868936 0.01697649 -0.8079356 -0.4850003 -0.23073141 1.2390094 -0.666903
-0.91404074 -0.9249442 1.6499141 1.2379919 1.0927451 0.7931138 1.2163423 -0.40317112
-1.2716335 1.2413787 -1.0439675 -0.3712231 0.34802946 1.0350766 0.029986085 1.3391342
0.79954034 1.2876508 -0.25527662 0.4412395 -0.41410956 1.0841695 0.5832243 0.57774913
0.66774124 0.9535375 -0.19574894 0.3600333 -0.94558537 0.0869757 0.22864658 0.092061505

layer2.bias f4 [12]
00000000: 8f40 473e 8159 bc3e d619 4f3e c26d 86bd
00000010: cb46 333f f29c 063f 28a4 993e 3b73 0f3e
00000020: c130 37bd 1334 383f 1097 80be f342 adbe
0.19458221 0.36787036 0.202247 -0.065639034 0.70029896 0.5258323 0.30008054 0.140088
-0.04472423 0.7195446 -0.25115252 -0.3384014

layer3.weight f4 [47, 12]
00000000: 0b04 28bf 7d07 4bbf 595a efbf 1c3d c7be
00000010: a123 f13e 4199 81bf 3a84 ed3e d3da b73e
00000020: 73b2 86be 8851 dbbe 22b3 6abe 9499 2cbe
00000030: 0b40 b5be 9a57 09be 695e 14bd 01c0 53be
00000040: 0d98 443e 8475 c4bf cd90 163f e4d3 a73e
00000050: c1af fcbe 6cef d9bf fe64 d7bf b6fc 2a3e
00000060: 7520 c1bd bd67 80be 5c95 9e3d 3ade 43be
00000070: 5ae6 afbe 02c6 92be 54b5 1abf e8cb ea3e
00000080: f518 a5be 4f91 1abf 5045 9fbe 37e6 ad3c
00000090: 398f db3e b45e 603e 2aac 0b3f e887 e0bf
000000a0: 7ea2 143e e338 5e3e 58f4 6bbf c790 8bbe
000000b0: cf1b 0ebe f3b5 b3bf fd4b c9be 74f5 a7bf
000000c0: 1432 b43e 433e ee3b e21e 6a3d da01 b2bf
000000d0: 9b6d 54bf 6a25 ca3d 6ca5 74bf 9de0 51bf
000000e0: d486 e83e f4b6 883d 2b20 913d f973 92bf
000000f0: 7b3d 3bbe 9bf1 843c 063d b5be 1767 06bd
00000100: 0b7d f7bc cd50 a7bf d821 34be 55cd 9c3e
00000110: 001b 2a3e cb2c 1ebe c1b3 ddbf e6ce aabe
00000120: df30 07c0 8adb 98bd 4884 cbbf 0ce9 c73e
00000130: 6732 98bf 9d96 fdbe 63ef 61bf 107d 5bbe
00000140: 1400 eebe 4df8 313e 5df2 67bd 8c2c 243e
00000150: 67d9 88be ad97 913d 143b 78bf a09b 43be
00000160: 7892 9ebd e5f6 c6bf e3f6 9abe da67 a23e
00000170: 830b d3bd e683 a5bf cf02 993e 9fc4 1abe
00000180: 184e 14bf 1c76 8f3e 94a8 0bbf a112 d53e
00000190: d074 17bf d35f 95bf 48d1 8a3e b865 e2bd
000001a0: 34c2 03bf bf42 e8bf 8660 48bf 47f5 953e
000001b0: 98bc e23d 99dc d63c e52a 8e3e 7a3c 25be
000001c0: 4870 a0bd 0e6a d33d 13cc 91bd 8959 553e
000001d0: b2d2 7fbf 03ae c7bf c864 8bbf 412e 87be
000001e0: df01 ff3e 38fd b73e 0007 5a3d 5d80 3f3e
000001f0: 7205 25bf a2f1 52bf d7be d8be 5e08 97bf
00000200: 2c5a 913e 6579 84bf 7254 a4bf 97af c83d
00000210: 231e 3abf 685b 7bbe 8202 67bf 7d23 00be
00000220: de50 58bd bd32 17be 2f87 96bd 9e87 053e
00000230: 1844 b2bf 9f12 c8bf 8a66 8e3e 36ad b83e
00000240: 9fc7 f33d 0fe8 69be 3919 b5be 5a3b 0bbf
00000250: a0e5 29bf 155a c23e 2adc e5bf 52f2 883e
00000260: 3e36 36bf 3c9f 0ebe 5ca0 9a3e 3d93 97be
00000270: 7378 f53d 5ff7 483e 8a05 4d3d ac4a 79bf
00000280: cc30 1f3e e92f 63be cdac fdbe b12e 883d
00000290: 921e 22bd 00a5 03c0 b4d9 643e 3b7d f1be
000002a0: b35d 85bf 3515 cbbe a715 8fbf 9359 c1bb
000002b0: 86bd bbbf 6e2e b83e 76f5 dabf 47df 043d
000002c0: 0a7e 8fbf 333d b03e dd84 2b3e 5652 84be
000002d0: 7733 8f3d bd69 073e f29c 0abf bed3 52be
000002e0: 4c31 b1bf 5b7a 02bf aed8 9ebe 6c42 dfbe
000002f0: c436 c0bd 29f2 63be b9e1 ea3e d19b ccbd
00000300: 1c52 d3bf 96de b0be c0ad dbbf 0e96 ba3e
00000310: 7824 32bf ebef 9ebf 496a 463e a5a7 bd3d
00000320: 0b0f 41bf d119 20bf db59 713e 8d66 3f3d
00000330: 2f0f 223e 6e19 0e3e 0598 15bf 7124 88bf
00000340: 6d69 fcbd 7ea0 7fbf 612a fe3e fd0d 19bf
00000350: 01b6 153e 821c aabf 3bc4 943e 6145 5dbe
00000360: 6def e4be 7387 b03e 3ffe 223e b14e 9c3d
00000370: c771 7cbf ef6b 81bf 216b 1cbf 7968 8cbf
00000380: 747f 3dbe b8c1 d83e c541 a8bf 530a 92be
00000390: 4e4b 4d3e d2b5 e03d 13f1 973e ebbf 09bf
000003a0: 9763 c3bf 0216 d73e 5e60 91bf d014 64bd
000003b0: ca8f 2cbf b1a0 3fbd 4d7d 8dbe 1182 e3bf
000003c0: c1be 0ebf 52ee 903e acff d1be 80b4 cf3d
000003d0: ea15 a6bf 0fd9 c4be d597 83bf 8e61 753e
000003e0: 5382 2fbf a418 96bf 0e3a 713e 8c01 913b
000003f0: d65e 43be 0de7 e0bd 9c2a b3be 095c 6fbe
-0.6563117 -0.793083 -1.8699447 -0.3891381 0.47097495 -1.0124894 0.46389943 0.35909137
-0.2630802 -0.4283564 -0.22919896 -0.1685546 -0.35400423 -0.13412324 -0.03622285 -0.20678712
0.19198628 -1.5348363 0.588147 0.32778847 -0.4935284 -1.7026191 -1.6827695 0.16697964
-0.09430019 -0.25079146 0.07743332 -0.19127741 -0.34355432 -0.28666693 -0.60432935 0.45858693
-0.32245603 -0.60377973 -0.3110757 0.021227939 0.42882708 0.21911126 0.54559577 -1.7541475
0.14515111 0.21701388 -0.92169714 -0.27258894 -0.13877796 -1.4039901 -0.39315787 -1.3121781
0.35194457 0.007270606 0.05715836 -1.3906815 -0.82979745 0.098704174 -0.95564914 -0.8198336
0.45415366 0.066755205 0.07086214 -1.1441642 -0.18285172 0.016228488 -0.3539812 -0.032813158
-0.030210992 -1.3071533 -0.17591035 0.30625406 0.16611862 -0.15446775 -1.7320482 -0.33360976
-2.1123579 -0.07463749 -1.5899744 0.39044988 -1.1890382 -0.4952897 -0.882559 -0.21434426
-0.46484435 0.17379875 -0.05662762 0.16032618 -0.26728365 0.07109008 -0.96965146 -0.19102335
-0.077427804 -1.5544096 -0.30266485 0.31719857 -0.1030493 -1.2930877 0.29884955 -0.15114067
-0.5793166 0.28019798 -0.54554105 0.41615775 -0.59162617 -1.1669868 0.27112794 -0.110545576
-0.51468205 -1.8145369 -0.78272283 0.29288694 0.11071128 0.026228236 0.277671 -0.16136351
-0.07833916 0.10322963 -0.07119002 0.20834936 -0.9993087 -1.5599979 -1.0890131 -0.26402476
0.49806115 0.35935378 0.053229332 0.1870131 -0.64461434 -0.8239995 -0.423331 -1.1799428
0.28389108 -1.0349547 -1.2838271 0.09799116 -0.72702235 -0.24546587 -0.902382 -0.12513538
-0.052811496 -0.14765449 -0.07350003 0.13040015 -1.392703 -1.5630683 0.27812606 0.3606965
0.11903309 -0.2284243 -0.35370806 -0.5438744 -0.66366005 0.37959352 -1.7957814 0.26747376
-0.71176517 -0.1392793 0.3020047 -0.2960452 0.119858645 0.19625615 0.05005411 -0.97379565
0.15545958 -0.22186245 -0.495459 0.06649531 -0.039579935 -2.0569458 0.22348672 -0.47165856
-1.041922 -0.39664617 -1.1178483 -0.0059005707 -1.4667213 0.35972923 -1.7106159 0.032439496
-1.1210339 0.3442169 0.16749902 -0.25844067 0.06992238 0.1322393 -0.5414573 -0.20588586
-1.3843169 -0.5096795 -0.31024688 -0.43605363 -0.09385446 -0.22260346 0.45875338 -0.09990657
-1.6509433 -0.3454482 -1.7162399 0.36442608 -0.69586897 -1.2416967 0.19376482 0.09260491
-0.7541358 -0.6253939 0.23569433 0.04672866 0.15826105 0.13876888 -0.5843509 -1.0636121
-0.12324796 -0.99854267 0.49641708 -0.5978697 0.1462021 -1.328995 0.29055962 -0.21608497
-0.44713917 0.3447834 0.159173 0.07632197 -0.9861111 -1.0111064 -0.61100966 -1.0969383
-0.18505651 0.42335296 -1.3145071 -0.28523502 0.20048258 0.109721795 0.29676113 -0.5380847
-1.5264767 0.42008978 -1.1357534 -0.05568391 -0.67406905 -0.046784107 -0.2763466 -1.7774068
-0.5575982 0.28306824 -0.41015375 0.101418495 -1.2975438 -0.38446853 -1.028071 0.23962995
-0.68558234 -1.172627 0.23557302 0.004425233 -0.19079146 -0.109815694 -0.34993446 -0.23374952

layer3.bias f4 [47]
00000000: e9ee aabc d3d8 393e db3f 51be 1dea 22be
00000010: 6f87 bc3c c216 28be c7ce 03be 4fc2 ee3c
00000020: 9fa1 273e 3b08 f0bd e388 6d3e 007b 1abf
00000030: df00 90bd 23f2 57be fa70 893c 5e58 1abe
00000040: d0b9 19be e8eb 683c cfd7 6cbe a87c a2be
00000050: e341 40be ec54 f8bd e0bf 5cbe ae80 88be
00000060: fc54 073e d2af fc3d 52c4 7cbd 7f64 b33d
00000070: c85c b23c 46df 81be 4f14 0cbe 5d34 be3e
00000080: 375b 97be 8a32 79bc 9e2d 003f be69 a83e
00000090: 6ac4 95be 95f9 273e d9eb febd b5c3 873e
000000a0: 37ad c53d 01d1 8dbc 61ea d0bd 8633 2eba
000000b0: dc36 b03c 7575 cebd c6c3 f13d
-0.020865874 0.18149118 -0.20434515 -0.1590962 0.023013799 -0.16414931 -0.12871848 0.029145388
0.16370247 -0.1172032 0.2319675 -0.60343933 -0.07031416 -0.21088462 0.016777504 -0.15072772
-0.15012288 0.014216401 -0.231292 -0.3173573 -0.18775134 -0.121255726 -0.2155757 -0.26660675
0.13216013 0.123382226 -0.061710663 0.087594025 0.021772757 -0.25365657 -0.13679622 0.37149325
-0.2956178 -0.015209803 0.50069606 0.32893175 -0.29251415 0.16403802 -0.12447328 0.265165
0.09652179 -0.017311575 -0.10200954 -0.0006645251 0.021510534 -0.10080997 0.11804919
